trained_model_v1.pt (torch, 464866 bytes, 24 tensors)

encoder.net.0.layer.0.weight f4 [64, 3, 3, 3]
000000 9a 6a 5b be 95 3e a5 3d e9 ac 1d be 8b 44 d9 3d
       -0.21427384 0.08068577 -0.15397991 0.10608777
000010 ff 83 00 be b9 dc db bc 38 0e 0e 3e 58 91 95 bd
       -0.12550353 -0.026838647 0.13872612 -0.07303113
000020 12 0a 83 3d c1 f7 71 3d 45 25 0b 3e 69 d3 50 be
       0.06398405 0.059074167 0.13588436 -0.20393147
000030 cd 96 09 be 6a 94 17 3e e3 b6 52 bc 50 32 e6 bc
       -0.13436432 0.14802709 -0.012860986 -0.028100163
000040 6a cc 4c be af e8 fc bc 24 bc 65 bc d6 26 9e bc
       -0.19999853 -0.030872671 -0.014021907 -0.019305628
000050 74 9e 3c be a3 1a 48 3e 08 b6 00 be 9f f0 22 bd
       -0.1841982 0.19541411 -0.1256944 -0.039780255
000060 43 2c 63 bd eb 75 44 be 35 1a 9f bd 24 b6 ea bd
       -0.055462133 -0.19185607 -0.077686705 -0.11460522
000070 48 c4 91 3d f1 35 2b be ce 74 2b be 35 ff 88 3d
       0.07117516 -0.16719796 -0.16743776 0.06689302
000080 77 f9 07 be c0 83 7c bd 19 41 40 3d 07 ef b2 3c
       -0.13278757 -0.061649084 0.046937082 0.021842493
000090 e4 cb 37 be 19 bd fa 3d 19 44 b0 bd c6 0b 90 3d
       -0.17948872 0.12243099 -0.086067386 0.070334956
0000a0 d2 ef 97 bd 1f 66 11 3e 5d eb 5c 3e fd 88 33 be
       -0.07418789 0.14199112 0.21574159 -0.17532726
0000b0 bb a5 4e 3c 56 6d 45 bd 58 ce a7 3d 63 79 b8 3d
       0.012612755 -0.048199974 0.08193654 0.09007528
0000c0 b2 be 1f be b9 4d 95 3d 42 f5 7e bd e9 8d 08 3e
       -0.15600088 0.07290215 -0.062245615 0.13335384
0000d0 62 ac 03 be d2 60 3e 3c 5a 0f 11 3e 11 de 2e 3e
       -0.12858728 0.011619763 0.14166012 0.17076899
0000e0 f3 fc 27 be 04 1a a5 3d c1 7d 3a 3c 16 14 e0 3d
       -0.16405086 0.08061603 0.011382521 0.10941331
0000f0 fe 69 48 be 98 43 b4 bd 03 bd b5 3d 4e 9b f2 bd
       -0.19571683 -0.08801955 0.08873942 -0.11846028
000100 fc 23 38 3e 35 db 22 3b ae 69 12 be 01 65 1e be
       0.17982477 0.0024849896 -0.14298126 -0.15468217
000110 0d 4e 98 3d 73 02 24 3d be 36 d0 3d 58 9c 4a 3e
       0.07436762 0.0400414 0.10166691 0.19786203
000120 dd db 4c 3e 43 4c 13 3d f7 1c 34 3c 03 30 37 3e
       0.20005746 0.0359614 0.010993234 0.17889409
000130 86 94 41 be 50 62 15 3d a9 97 d9 bd db 5f a4 bc
       -0.18904313 0.03647071 -0.1062463 -0.020065239
000140 b7 66 1a 3e 21 87 a3 bd 0a 93 0a 3e 99 d9 2c 3d
       0.15078245 -0.07984758 0.13532653 0.042199705
000150 10 83 58 3e fe 34 21 be a0 86 89 3d 04 60 5d 3e
       0.21143746 -0.15742871 0.06715131 0.21618658
000160 56 93 3e bd c1 af 85 bd aa 9d a0 bd a0 e9 23 be
       -0.04652723 -0.06527663 -0.07842572 -0.1600709
000170 50 4b 68 bd b1 65 bf 3d 14 93 03 3e 0f 59 16 3e
       -0.05671245 0.09345568 0.12849075 0.1468241
000180 ae 28 1c 3e d8 37 fb 3d 85 73 55 be ac 45 3f 3e
       0.15249893 0.12266511 -0.20844848 0.18678921
000190 41 5f 49 be d9 fe 23 be 21 1a da bd 15 6a 32 3e
       -0.19665243 -0.16015185 -0.10649515 0.1742328
0001a0 26 c2 04 3d 91 bc 29 bc 06 23 5b 3c f1 2c 06 be
       0.032411717 -0.010359899 0.013375049 -0.13103081
0001b0 a5 6b c4 3b 84 c8 f0 bd 25 70 64 be 46 42 c1 3c
       0.0059942775 -0.11756995 -0.22308405 0.023591172
0001c0 58 64 b5 3d f3 a1 54 3b c2 60 34 3c ea ff 0c 3e
       0.0885703 0.0032445162 0.011009397 0.13769498
0001d0 81 c5 0d 3e 68 d6 ec bd e5 06 d7 bd e8 cf e5 3a
       0.13844873 -0.11564332 -0.10499362 0.0017533274
0001e0 d1 1e 00 be 63 0a 77 3d 80 62 cf bd 1d 24 fc bd
       -0.12511756 0.06031264 -0.10126209 -0.123115756
0001f0 aa e3 3a be c6 3f 5d 3e 1c 20 3b be e2 4f bf 3c
       -0.1825091 0.21606359 -0.18273968 0.02335352
000200 a8 7d c7 bd 5e 08 da 3d af dd 14 bd f9 cd cd 3d
       -0.09740764 0.10646127 -0.036344226 0.10049052
000210 6e 93 28 3e 40 f3 1a be 06 55 16 3e 3e 99 26 3d
       0.1646249 -0.15131855 0.14680871 0.040673487
000220 53 9e 1c be 4e b5 2a 3e 4b 33 02 3e 6e b6 28 be
       -0.15294771 0.16670725 0.12714879 -0.16475841
000230 95 9c 69 3e ca 49 11 be 96 c4 0f 3d 39 8b d9 3c
       0.22813638 -0.14188305 0.03509959 0.026555644
000240 f3 d0 02 3e d7 0f b0 bd 08 93 f7 3d 98 3a c7 bd
       0.1277502 -0.08596771 0.12088591 -0.09727973
000250 aa ec 09 3d 45 36 e6 3d f1 8f a4 bc a6 7a 51 3e
       0.033672966 0.1124082 -0.020088168 0.20456943
000260 aa a0 ff 3d d5 83 a5 3d 48 c3 4f be 99 ea 41 3e
       0.12481816 0.080817856 -0.20289338 0.18937148
000270 7a f6 59 be c6 65 4f bc 25 1b 6f 3d 29 d1 97 3d
       -0.2128543 -0.012658542 0.058375496 0.07412941
000280 bf f5 44 3e 03 0d 2d 3d 0b a7 32 3e 41 0b 4e 3c
       0.1923437 0.042248737 0.17446534 0.012575925
000290 3f 25 e9 bd 0c 84 67 be e9 de 81 bd e3 3a a4 bc
       -0.11384057 -0.22608966 -0.06341345 -0.02004761
0002a0 20 52 28 3e f7 fd 15 3e 24 da 30 be 4f aa e4 3c
       0.16437578 0.14647661 -0.17270714 0.02791324
0002b0 fb 66 a3 3d 25 e6 c0 3d 1c ea 80 bd 61 d6 0a be
       0.07978626 0.094188966 -0.06294653 -0.13558342
0002c0 71 b9 3c bc 47 94 12 be 51 f4 0a 3e 8b a3 0f be
       -0.011518822 -0.14314376 0.13569762 -0.1402723
0002d0 34 bd 22 bc b9 12 9e bd 5c e4 59 be d3 d1 25 be
       -0.009932805 -0.07718415 -0.21278518 -0.16193323
0002e0 98 14 a7 3d c0 81 69 3e e4 a4 16 3e c1 41 25 3e
       0.08158225 0.22803402 0.14711338 0.16138364
0002f0 72 f4 0a 3e 95 f7 46 bd aa 45 07 be d1 32 7d bd
       0.13569811 -0.048575956 -0.13210168 -0.06181604
000300 4a 1f 2e be 0b f3 81 3e 8d 3f 38 be 6a d6 3c be
       -0.17004123 0.2538074 -0.17992993 -0.18441167
000310 2c ab b8 3d f8 97 23 3e 84 80 b7 3c d1 b4 16 3d
       0.090170234 0.1597594 0.022400148 0.036793534
000320 15 f1 f6 bd a5 68 e3 bd 1a 12 3d 3e 89 73 de 3d
       -0.120577015 -0.11103944 0.18463936 0.1086188
000330 8b 95 6d bd 9a 47 14 3e ff 7c 85 3d c5 3c 5f 3e
       -0.058003943 0.14480439 0.06517982 0.21800525
000340 3a aa 18 be 99 48 1a be 13 63 22 3e 83 48 00 3e
       -0.14908686 -0.15066756 0.15858106 0.12527661
000350 06 f4 8d bd d1 bc 46 3d 9d 50 18 3e c9 bb 09 3e
       -0.069313094 0.048519913 0.14874502 0.1345054
000360 0c c9 97 3b 72 53 e0 bd 6c eb 16 be 3a 0b 34 be
       0.004632121 -0.10953416 -0.14738244 -0.17582408
000370 b5 53 a6 bd 73 75 dc 3d c4 48 4e 3d 6a 2f ca bd
       -0.081214346 0.10764589 0.050362363 -0.09872325
000380 ee 5f 31 bd a2 11 4b 3d 2f 70 1f be 2a 26 80 3d
       -0.043304376 0.049577363 -0.15570138 0.06257279
000390 4b 30 12 be 7c a1 f6 3c 87 20 12 3e eb 42 08 3e
       -0.14276235 0.030106299 0.1427022 0.13306777
0003a0 68 33 c7 bd 87 50 7c be e2 29 42 be 95 42 9a 3d
       -0.09726602 -0.24640094 -0.1896129 0.07532231
0003b0 1b db 62 bc 31 c3 01 bd ea d5 ff 3c 47 f8 24 3e
       -0.013846184 -0.03168029 0.031229932 0.16110335
0003c0 7a be 4f be 0c 9c 0a 3e 21 ff 0b be cf 04 82 bd
       -0.20287505 0.1353609 -0.13671543 -0.063485734
0003d0 ff 42 7c 3e 8a d1 b2 bc 24 08 5a bd 03 6f 35 be
       0.24634932 -0.021828432 -0.05323042 -0.17718129
0003e0 90 c7 2b bc 96 4c af bd 59 59 00 be cb 1a 37 bd
       -0.010484591 -0.085595295 -0.12534083 -0.044703286
0003f0 a5 f5 86 3d 40 53 0b 3e 9a e3 86 3d 19 66 31 be
       0.06589822 0.13605976 0.0658638 -0.17324103

encoder.net.0.layer.0.bias f4 [64]
000000 64 40 8b 3d dc 49 88 3d 77 46 d0 3d 35 2a e2 3d
       0.06799391 0.066547126 0.1016969 0.110432066
000010 ee 19 47 3e 7d 7d fd 3c 46 f0 b0 bd 91 3f a3 3d
       0.19443485 0.030943627 -0.086395785 0.07971109
000020 32 57 0c be e0 44 62 bc 88 0f 17 3d cb b9 fd bd
       -0.13705137 -0.013810366 0.036880046 -0.12388953
000030 37 2f 28 3d bc 36 32 be b6 91 02 be cd 55 36 3e
       0.041060653 -0.17403692 -0.12750897 0.17806168
000040 19 17 20 3d 76 38 f2 bc fb 87 17 be fc 95 0d 3e
       0.039084528 -0.029567938 -0.14797966 0.13826746
000050 c9 a2 15 3e 6c cd b5 3d 98 2b 99 3d 7a f0 d6 3d
       0.14612879 0.08877072 0.07479018 0.10495086
000060 32 d5 07 be f8 02 e2 3c 65 c1 ed bd bd d0 15 3e
       -0.13264921 0.027589306 -0.11609153 0.14630409
000070 65 a9 fb bd 20 2f 0e 3e d4 0c 4c bd 0f 96 ee 3d
       -0.12288169 0.13885164 -0.04981692 0.11649715
000080 dd d7 0d 3e 28 e3 bf bd 57 78 0a be 90 c7 b6 3c
       0.13851877 -0.093694985 -0.13522469 0.022311956
000090 3d 4d cb bd de 7d 47 3e 38 a1 ab 3c 7f 3c 38 bd
       -0.099268414 0.19481608 0.020950899 -0.04497957
0000a0 fa 7e 6e bd 0a b3 31 be 33 a6 94 3c 19 86 34 be
       -0.058226563 -0.17353454 0.018145656 -0.17629279
0000b0 5a 59 04 3e 41 49 0a bd 9c 50 e9 bc d9 18 52 be
       0.1292471 -0.033761267 -0.02848082 -0.20517291
0000c0 af 52 29 3d 81 c4 ee 3d 2f 42 88 3d 1b b9 77 3d
       0.04133862 0.11658574 0.066532485 0.060479265
0000d0 16 90 3e 3e 08 6e 12 3e a8 de 25 3d 03 de 0d 3e
       0.18609652 0.14299786 0.040495545 0.13854222
0000e0 0a 4d de bd f0 ab 5a bd c6 96 a4 3d dc 09 46 bc
       -0.10854538 -0.05338663 0.0803657 -0.012087312
0000f0 f3 bb d4 bd b7 2e c4 bd ed ad e6 bc 6f 56 af 3d
       -0.10387411 -0.09579223 -0.028159106 0.08561408

encoder.net.0.layer.1.weight f4 [64]
000000 9d 45 65 3f bf 19 5a 3f 2d 5b 86 3f fd 35 76 3f
       0.89559346 0.85195535 1.0496575 0.9617613
000010 84 8a 5e 3f 23 9b 99 3f ae 9d 5f 3f bc bf 7f 3f
       0.8693011 1.2000469 0.87349975 0.9990194
000020 02 43 5c 3f 62 ab 5d 3f 5a 9f 9a 3f d6 76 89 3f
       0.86039746 0.86589634 1.207988 1.0739391
000030 b5 8d 61 3f 52 8f 73 3f 26 17 8a 3f 9e d3 87 3f
       0.8810685 0.95140564 1.0788314 1.0611455
000040 a2 eb 68 3f cc 49 ab 3f c0 d5 7b 3f ad 7c a9 3f
       0.9098455 1.3381896 0.9837303 1.3241173
000050 20 b9 7e 3f c5 db 8b 3f 04 47 57 3f 33 71 8a 3f
       0.9950123 1.0926443 0.84092736 1.0815796
000060 3f 72 8e 3f d2 dc 8c 3f 86 fb ba 3f 20 d7 8e 3f
       1.1128615 1.1004889 1.4608009 1.1159401
000070 2e 3f 4f 3f 63 0d 72 3f 2e 61 6d 3f c1 0d 8d 3f
       0.8095578 0.94551677 0.9272641 1.1019822
000080 62 0c 82 3f 74 b2 93 3f dd 83 81 3f e4 d9 8e 3f
       1.0160029 1.1538835 1.0118366 1.1160245
000090 f5 a3 83 3f e8 70 82 3f 7d 85 93 3f 99 34 66 3f
       1.0284411 1.0190706 1.1525112 0.8992401
0000a0 be e8 76 3f 0b 72 71 3f 6a 4c 4d 3f 29 72 6e 3f
       0.96448886 0.9431464 0.80194724 0.93142945
0000b0 1e 2c 67 3f 3b 1d 74 3f 82 89 87 3f 5a cf a5 3f
       0.9030169 0.953571 1.0588839 1.2953904
0000c0 7f e2 86 3f de a3 89 3f c5 46 64 3f 0f 10 98 3f
       1.0537871 1.0753133 0.89170486 1.1879901
0000d0 f2 70 49 3f ff a8 8a 3f 64 71 4c 3f 90 c4 57 3f
       0.78687966 1.0832824 0.7986052 0.84284306
0000e0 fe 94 9a 3f c8 d2 56 3f b3 b4 80 3f 2e 53 55 3f
       1.2076719 0.83915377 1.0055145 0.8333005
0000f0 9a 37 74 3f 98 b9 ba 3f e6 71 84 3f e4 d6 93 3f
       0.9539734 1.4587889 1.0347259 1.1549954

encoder.net.0.layer.1.bias f4 [64]
000000 31 7b a3 be 4e 17 ba be 3f ab 1f be ae 3d b1 bd
       -0.31929925 -0.36345905 -0.15592669 -0.086543426
000010 c0 36 a3 be cc a9 3d bd c8 c5 9c be 75 83 63 be
       -0.31877708 -0.04630451 -0.30619645 -0.22218116
000020 ee a8 b6 be 3b 3b 27 be c4 cc ff bd 16 82 b4 bd
       -0.35675758 -0.16331188 -0.12490228 -0.088138744
000030 0c 78 cf be 43 d3 b0 be 13 52 92 bd c8 db e7 bd
       -0.40521276 -0.3453618 -0.07144561 -0.11321217
000040 f9 84 58 be 64 7e 3c be d4 79 3e be ad e1 83 bd
       -0.21144475 -0.18407589 -0.18601161 -0.064395286
000050 6a 13 da bd 12 ae 13 be 2f 3f 22 be ce 27 59 be
       -0.10648234 -0.14421871 -0.15844415 -0.2120659
000060 7b 92 28 be df c9 1c be 23 5f 40 be ae 95 5a be
       -0.16462128 -0.15311383 -0.18786292 -0.21346161
000070 d3 1d a2 be 97 19 bf 3d d4 75 e1 bd 03 78 18 3e
       -0.3166338 0.09331053 -0.11008802 0.14889531
000080 67 9d 7c 3d 7b cf 25 be 28 2c aa 3d cb 1f c0 3c
       0.061673548 -0.16192429 0.083092034 0.02345266
000090 5e e8 fb bd 66 2c 7a 3c 46 8c 8f bd 8f b6 d5 bd
       -0.1230018 0.0152693745 -0.07009177 -0.10435211
0000a0 3d 60 78 bd 7b bf 3a bc 73 74 78 be 05 2d ed bd
       -0.060638655 -0.011398192 -0.24263172 -0.115808524
0000b0 6f f0 c4 be e2 60 9e 3d 10 3e 22 3e b0 c9 1a be
       -0.38464686 0.07733323 0.15843987 -0.15116
0000c0 07 51 4e be 68 e3 4d 3e 80 b3 c3 be 68 d9 84 be
       -0.20148097 0.2010628 -0.38222885 -0.25947118
0000d0 d7 c7 25 be 63 fa 4c be 76 db be bd ac 60 c8 be
       -0.16189514 -0.2001739 -0.093192026 -0.39136255
0000e0 fa d7 e0 bd 88 a3 8a be d0 f4 08 bd a6 92 7d be
       -0.10978694 -0.2707789 -0.033436596 -0.24762973
0000f0 59 dd fc bb a0 72 0b be f6 73 b4 bd 1d 5d 0e 3e
       -0.0077168164 -0.13617945 -0.0881118 0.13902707

encoder.net.0.layer.1.running_mean f4 [64]
000000 93 8d 58 c3 48 31 ad c2 3b f3 09 43 b7 ce 7c 42
       -216.55302 -86.59625 137.95012 63.20187
000010 b5 ae 92 c2 5a 85 41 43 70 39 fb 40 bc 46 db 42
       -73.341225 193.5209 7.8507614 109.63815
000020 d9 aa 42 c3 1e 54 18 c3 52 3c 1b 43 87 16 b9 42
       -194.66737 -152.32858 155.23563 92.544
000030 29 f6 04 c3 5e 5b 30 c1 d0 e5 1a 43 f5 d3 12 43
       -132.96156 -11.022306 154.8977 146.82796
000040 dc 68 d0 c2 23 0d 0d 43 26 71 91 42 5d 47 3a 43
       -104.2048 141.05132 72.72099 186.27876
000050 98 09 a5 42 9a f6 f0 42 f3 7e 67 c1 60 9c e2 42
       82.51874 120.48164 -14.468493 113.30542
000060 ce 23 c9 42 d5 bc 00 43 20 5b 62 43 7a 54 e3 42
       100.56993 128.73763 226.35596 113.66499
000070 27 0c 0d 40 b3 49 b0 42 cd c4 35 42 31 fb fb 42
       2.2038667 88.14394 45.44219 125.99061
000080 93 8c 05 43 05 9c 0a 43 a7 fb 07 43 fd c3 96 42
       133.54912 138.60945 135.98302 75.38279
000090 43 76 72 42 9e 10 97 42 84 5b 04 43 f5 6a db 40
       60.61549 75.532455 132.35748 6.8568063
0000a0 b5 a5 48 42 04 9c 8c 42 ac 6b 78 c3 83 b6 99 42
       50.161823 70.30472 -248.4206 76.85647
0000b0 e6 a5 83 c3 26 58 31 42 9e fa 45 42 b3 13 02 43
       -263.29608 44.336082 49.494743 130.07695
0000c0 f9 76 e6 42 09 5a 04 43 cf 07 41 c3 55 e1 ec 42
       115.23237 132.3517 -193.0305 118.4401
0000d0 cf df a5 c2 39 3f a9 42 39 be 25 c2 f8 b3 cc c3
       -82.937126 84.62348 -41.435764 -409.406
0000e0 39 26 55 43 67 b8 3f bf b9 6f f2 42 4b 8a e2 c2
       213.1493 -0.7489075 121.21821 -113.2701
0000f0 78 c8 65 42 bc 4a 65 43 96 18 da 42 f7 74 f1 42
       57.44577 229.29193 109.04802 120.72845

encoder.net.0.layer.1.running_var f4 [64]
000000 69 35 81 45 5b c3 90 44 bd b0 27 45 d2 e1 40 45
       4134.6763 1158.1049 2683.0461 3086.1138
000010 dd 4f 6e 45 7c 91 bf 45 c9 96 c6 44 44 b0 7a 45
       3812.9915 6130.1855 1588.712 4011.0166
000020 fe 1f 45 45 31 15 8a 45 cd ab 5f 45 7c 0f 5b 45
       3153.9995 4418.649 3578.7375 3504.9678
000030 6b ef d7 44 37 1e 81 45 20 e5 55 45 1f 9d 20 45
       1727.4818 4131.777 3422.3203 2569.82
000040 ae 93 51 45 13 9b e1 44 d9 10 25 45 e1 14 ab 45
       3353.23 1804.8461 2641.053 5474.61
000050 b3 ff 1b 45 8c 72 92 44 b5 2e 5e 45 9c 10 54 45
       2495.9812 1171.5796 3554.9192 3393.038
000060 7f c0 98 44 b7 36 f7 44 d1 f2 8c 45 e1 00 84 44
       1222.0155 1977.7098 4510.352 1056.0275
000070 84 c3 88 44 db e1 a1 44 6c 1f 18 45 f0 28 11 45
       1094.1099 1295.058 2433.9639 2322.5586
000080 2a 9a 18 45 72 30 06 45 ff a3 44 45 85 36 42 45
       2441.6353 2147.0278 3146.2498 3107.4075
000090 fb 16 9b 44 e6 6a cc 44 13 11 9b 45 68 49 09 45
       1240.7181 1635.3406 4962.1343 2196.588
0000a0 e1 3b eb 45 f8 49 8c 45 67 b8 9c 45 73 3f cf 44
       7527.485 4489.246 5015.0503 1657.9828
0000b0 de fc 80 45 19 84 12 45 a3 d6 88 45 28 36 36 45
       4127.6084 2344.256 4378.8296 2915.3848
0000c0 91 4a 19 45 c0 f1 36 45 6e e8 4a 45 b0 de 4d 45
       2452.6604 2927.1094 3246.5269 3293.918
0000d0 c2 39 d1 44 c3 af 5d 45 0b 74 20 45 5c b6 0d 46
       1673.8049 3546.985 2567.2527 9069.59
0000e0 60 00 f7 45 38 88 17 45 c9 01 3c 45 a4 74 1d 45
       7904.047 2424.5137 3008.1116 2519.29
0000f0 90 e3 9a 44 2b 28 66 45 27 f3 e7 44 c2 17 53 45
       1239.1113 3682.5105 1855.5985 3377.4849

encoder.net.1.layer.0.weight f4 [64, 64, 3, 3]
000000 3c 23 c3 3c 8d a4 a9 bc a1 20 1e bc 66 45 a1 38
       0.023820512 -0.020708347 -0.009651334 7.690005e-05
000010 be ef 4b bc ba 39 85 3c 6b 35 a7 3c d9 2e 4f bd
       -0.012447296 0.016262878 0.020411214 -0.050581787
000020 e0 ed bf 3c 95 61 f1 3c f6 38 fa bc 72 6b 17 3d
       0.023428857 0.029465476 -0.03054474 0.036967702
000030 87 6e a4 3d 17 e1 45 3d 5a 98 76 bd f9 15 ea 3b
       0.08028894 0.048310366 -0.060203888 0.0071437326
000040 96 00 f7 3b 47 cc 0d bd c9 a3 ae bc 31 a4 fd 3c
       0.0075379116 -0.034618642 -0.021318333 0.030962082
000050 9a 82 58 3d 6e e7 a3 bd 39 56 33 3d 06 e6 7f bd
       0.052858926 -0.08003126 0.0437834 -0.062475227
000060 16 c5 96 3d b0 b7 fd bd b5 ce 44 bd ed 30 a3 bd
       0.0736181 -0.12388551 -0.048048694 -0.07968316
000070 e8 2b 9e 3c fc 49 16 3c 40 b2 1b bb 3a e8 21 be
       0.019308046 0.009172913 -0.0023757368 -0.15811244
000080 e4 98 53 3d bc c7 ee ba ce 8d 93 bd 4c de e4 bb
       0.05165948 -0.0018217484 -0.072047815 -0.0069845077
000090 d0 fc 23 bd c2 0c e2 3c 61 d2 76 bd 49 60 80 3c
       -0.040036023 0.027593974 -0.060259227 0.015670912
0000a0 11 b1 17 3d 8d f4 9b 3c 73 d4 3a bc bc 69 46 3d
       0.037034098 0.01903751 -0.011403191 0.04844068
0000b0 c7 56 ee 3c 5a 21 0b bd 1b 87 ee 3a f9 80 e9 3d
       0.029094113 -0.033967353 0.0018198224 0.11401553
0000c0 cd fa 9c bd d7 ad 45 bd 21 ff 82 3d 73 3d 4c 3d
       -0.07665024 -0.04826149 0.06396318 0.04986329
0000d0 e4 d2 c6 3c ae ee ed 3d c2 d7 89 3d 69 f8 3a bd
       0.024270482 0.1161779 0.06730606 -0.04564706
0000e0 f9 e2 a2 3d 38 ff 81 3d bd 35 9e 3d 14 99 71 bc
       0.07953448 0.06347507 0.077250935 -0.014745969
0000f0 72 18 1b 3d 22 1a f7 bb 6e 84 74 3c d6 27 82 bd
       0.03786511 -0.007540957 0.014924152 -0.06355254
000100 21 fd f1 3c 99 d1 8f 3d f6 e1 0c bd 6d b1 3b bd
       0.029539647 0.070223995 -0.03439518 -0.045823503
000110 7c a8 52 3c cb c5 ab 3b f7 9e 55 3c a8 da 8a bd
       0.012857553 0.0052420846 0.013038388 -0.067799866
000120 d7 23 73 bd 27 22 36 3d f6 35 1b 3c 26 cb 89 3d
       -0.05936035 0.044466164 0.0094733145 0.067282006
000130 0f c6 d5 bc 0a 1d 88 bd 45 e9 80 3d da 5b 9d bc
       -0.026095418 -0.06646164 0.06294493 -0.019208837
000140 81 98 8f 3b 91 6a 36 3d 98 ff 3a 3d 86 5a 38 bd
       0.0043821936 0.044535223 0.04565391 -0.045008205
000150 c6 d2 56 3d 14 de 6f bb bb 07 9b bd 7a 47 1c 3d
       0.052447103 -0.0036600875 -0.07569834 0.038154103
000160 4c 07 b9 3d 04 23 b1 bc d8 23 91 3d 4c a2 0a 3e
       0.09034595 -0.021623142 0.07086915 0.13538474
000170 8a 63 07 3e b6 95 ed bc dc 12 86 3d f6 b4 43 bc
       0.13221565 -0.029002052 0.06546566 -0.011945
000180 a2 50 95 3d a4 90 26 3e 2e 21 aa 3d c0 a7 92 bc
       0.0729077 0.16266114 0.0830711 -0.017902255
000190 cf db a9 bd 8c 90 0f 3d 07 c1 c1 3d 99 78 65 bc
       -0.08293878 0.03504996 0.09460645 -0.0140058035
0001a0 fa 6a 67 3d cd 8b c1 3c 61 21 27 bd a5 78 96 bd
       0.056498505 0.023626233 -0.040803317 -0.0734723
0001b0 5f f8 02 bd 6f 46 12 3d f4 ff 8e bd 86 33 3b bd
       -0.031975146 0.035711702 -0.06982413 -0.045703433
0001c0 9d 0a a1 bb b9 12 85 bc a5 b2 72 3d 8b 86 b2 3c
       -0.0049145953 -0.01624428 0.0592524 0.02179267
0001d0 22 45 8c bc 95 fe 00 bd f1 21 77 bd 46 4d 3c bd
       -0.017122809 -0.03149279 -0.060335103 -0.04597213
0001e0 36 b7 66 bb 1c 75 f8 bc 08 2a e8 3c 2d b4 3d 3d
       -0.0035204417 -0.03032928 0.028340355 0.046314407
0001f0 61 f5 37 3d ca 3d ff bc ab f1 77 3d b1 86 22 bd
       0.044911746 -0.031157393 0.060533207 -0.039679233
000200 b5 ce 18 bd ce 22 d9 3d c5 da 62 bd 11 68 58 3d
       -0.037306506 0.106023416 -0.055384416 0.05283362
000210 b6 de 0e be 5d bd 51 bd 9a e5 a0 3d 9e d4 b8 3d
       -0.13952145 -0.05120598 0.07856293 0.090249285
000220 ae 70 fa 3a 5e 5f af 3d d5 6a 6a bd da 09 12 bd
       0.0019107067 0.08563112 -0.05723079 -0.035653926
000230 4c 2a 9d 3d 07 fe 8b 3d c8 fb de 3c 3b 0b 3d 3d
       0.07674083 0.06835561 0.027219668 0.04615329
000240 44 7b 73 3b 77 b8 9e bd 6c 9d ed 3c ab c2 9e 3d
       0.003715233 -0.077500276 0.029005729 0.07751974
000250 dd f0 93 bd 30 d3 3d 3b cf f7 b3 3c 8b 2b c9 bc
       -0.072236754 0.002896499 0.02196875 -0.024556896
000260 68 c8 9a 3c c2 37 5e bd 03 f9 d1 bc cb e8 bf 38
       0.01889439 -0.054252394 -0.025631433 9.150951e-05
000270 d4 b6 fb 3b e1 63 0c be 9a b6 0a 3e ad 11 f4 bd
       0.007681707 -0.13709976 0.1354622 -0.11917434
000280 2a fa 91 3d e6 77 61 bc 38 1d 56 bd 83 4e 96 bc
       0.07127793 -0.013761496 -0.05227396 -0.018347984
000290 6a 7a 38 3d 52 d0 74 bd 4e 6b b1 bd 14 08 ea bc
       0.04503862 -0.059768982 -0.08663045 -0.028568305
0002a0 45 7a 2f 3d eb 8a d4 bd 34 a2 85 bd 24 a7 7e 3c
       0.042841215 -0.10378059 -0.065250784 0.015542779
0002b0 6f 3a 24 ba 34 1a 50 3c 7e 68 ac bd 5e c3 99 bd
       -0.0006264811 0.01270156 -0.08418368 -0.075079665
0002c0 7c 68 8b bd 2b 27 f0 bd 0c 82 23 3c 9b 82 2c 3e
       -0.06807038 -0.11726221 0.009979736 0.16846697
0002d0 6a 11 4f bc 90 15 3d bd d2 10 52 bc 39 cb b5 bc
       -0.012638429 -0.04616314 -0.012821393 -0.02219163
0002e0 6e 4b 28 bd 6d 58 1d bc de 8e 8a 3b ec de 17 bd
       -0.04108756 -0.009603602 0.004228457 -0.03707783
0002f0 f7 09 8b bd 50 b7 f1 bc 63 98 ba bd 47 4d a1 3d
       -0.0678901 -0.029506356 -0.09111097 0.078760676
000300 8d fa 44 3d 39 83 a0 3c 88 66 3d 3d 40 7a 33 bd
       0.048090506 0.019593822 0.04624036 -0.04381776
000310 09 e3 a1 3d c6 39 52 bd c5 65 5e 3d 6e dd ad 3c
       0.07904632 -0.05132463 0.054296274 0.02122375
000320 72 d0 9b 3d 98 e2 30 3d f4 b7 98 3c 21 78 ba bd
       0.07608117 0.043184847 0.018642403 -0.09104944
000330 8e 55 4a bd ad 72 ed 3c 8b b4 a8 bd 48 a5 29 be
       -0.049397998 0.028985346 -0.08237561 -0.16566956
000340 7f ae eb 3c 5e f2 04 bd 0d 69 9e 3d 13 89 b6 3c
       0.02876973 -0.0324577 0.077348806 0.022282159
000350 4d d8 3b 3d 1d fa f8 3d fa 82 aa 3c 8f cb df bc
       0.045860577 0.1215708 0.020814408 -0.027318744
000360 59 7c bf 3c 3e 27 07 be 52 c0 96 3d 6d 58 5e bd
       0.023374723 -0.13198563 0.07360901 -0.05428355
000370 e1 8c f7 bc 03 2c 3c 3d 37 6b 54 bd 0e c7 2d bc
       -0.030218543 0.04594041 -0.05186006 -0.01060654
000380 04 7e e4 3d 5d a6 23 3e 9b 8e 15 3d dc d2 98 3b
       0.11156848 0.15981431 0.036512952 0.0046638083
000390 71 b3 f8 bc 2b 92 49 3d 8e 7e eb 3d f3 bd ab 3c
       -0.030359002 0.049211662 0.11498748 0.020964598
0003a0 a2 6d 03 3d 5e 4e a2 bd 4a 18 b3 bc 53 a9 8f 3d
       0.032086976 -0.079251036 -0.021862168 0.07014718
0003b0 98 08 02 3c 05 73 f9 3d 19 c9 1c 3c 80 6d f3 bb
       0.007936619 0.12180141 0.00956943 -0.007428825
0003c0 c7 ed f8 bd ab cb b5 bc 2f 92 4d 3c 6f 0c 15 bd
       -0.121547274 -0.022191843 0.01254706 -0.03638881
0003d0 d9 30 ba 3d db f8 24 ba a7 56 55 3d be 9f 1f bd
       0.09091348 -0.0006293186 0.05208459 -0.0389707
0003e0 84 19 cd 3d 80 74 b5 bd e9 fb 8a 3d a7 5a c5 bc
       0.10014632 -0.08860111 0.06786329 -0.024091078
0003f0 a9 c6 25 ba 48 40 d5 bc 5f fa a4 bb 3c 08 c6 bc
       -0.0006323853 -0.026031628 -0.0050347294 -0.024173848

encoder.net.1.layer.0.bias f4 [64]
000000 a0 bd 0d bd ef 05 25 bd 72 2b 1c bd c2 eb 94 bd
       -0.03460467 -0.04028886 -0.03812737 -0.0727153
000010 02 aa c6 bd b9 97 99 3c 36 ca a3 bc 76 f0 55 bc
       -0.09700395 0.018749105 -0.019993883 -0.013057819
000020 5a da 98 3d e1 f0 8b 3a 5a 81 4e bc ae 21 14 bd
       0.07463522 0.0010676646 -0.012604082 -0.036164932
000030 ad 4c 9b 3d 5e a7 32 bd f8 79 b0 bb 80 de a0 3d
       0.07582984 -0.043616645 -0.0053856336 0.078549385
000040 ee d8 76 3d 16 eb 1d 3d c5 f5 39 3d df 56 73 3d
       0.060265474 0.038554274 0.0454004 0.05940902
000050 98 9e 01 3d b5 cd 62 3c 9c 4a bc 3d d4 ae 67 3d
       0.031645387 0.01384299 0.09193918 0.056563213
000060 84 a7 56 bd bd 62 22 3d 21 3d c9 bc 49 57 11 bd
       -0.05240585 0.039644945 -0.024565281 -0.035483632
000070 1f d5 66 3d 11 76 b1 3c 5f a4 8e 3c 35 55 8b 3b
       0.056355592 0.021662744 0.017412363 0.004252101
000080 a1 c8 c5 bd bd b2 8b 3d c6 02 4d 3d b8 d6 9d 3c
       -0.096574076 0.06821201 0.050051473 0.019267425
000090 6f 1b 96 bb e8 fc 10 be 88 a8 49 3d 28 a6 36 3c
       -0.004580907 -0.14158976 0.04923299 0.011148013
0000a0 85 2c 8d 3d b9 2b b4 3c 2b 2b 56 bd 40 dd 4b 3c
       0.06893257 0.021993505 -0.052287262 0.012442887
0000b0 82 2e 86 3d 06 93 08 bd 85 99 2c bd 2d a9 e8 3c
       0.065518394 -0.033343337 -0.042138595 0.028400982
0000c0 24 b4 ac 3d cd 46 10 bd a1 15 e8 bb ca 86 ad 3c
       0.084327966 -0.03522377 -0.0070826565 0.021182436
0000d0 b7 49 ce bd 9f 34 ed bc 25 e5 17 bd 60 20 0a 3c
       -0.10072654 -0.028955756 -0.037083764 0.00843057
0000e0 bb 45 d5 3c 72 11 e8 3c c0 d0 0a 3d 9b 30 54 bd
       0.026034227 0.028328631 0.033890486 -0.051804166
0000f0 95 36 70 3d 79 0e 81 3d a2 86 f2 bc 93 c0 06 be
       0.058645803 0.063015886 -0.029605214 -0.13159399

encoder.net.1.layer.1.weight f4 [64]
000000 7a 5c 69 3f e7 9c 8d 3f f0 02 72 3f a8 f2 64 3f
       0.91156733 1.1063508 0.9453573 0.89432764
000010 d8 c5 96 3f a9 49 7b 3f 33 9c 8e 3f 1a 6d 82 3f
       1.1779127 0.9815927 1.1141418 1.0189545
000020 cd 7c 86 3f e6 0a 5c 3f 05 2a 6e 3f cb 51 70 3f
       1.0506836 0.8595413 0.93032867 0.93874806
000030 18 d4 84 3f 6b 10 68 3f 27 87 76 3f 83 f3 75 3f
       1.0377226 0.9065005 0.96299976 0.96074694
000040 58 15 7f 3f 8a 05 a1 3f 4b 39 83 3f 5a ac 6a 3f
       0.9964194 1.2579815 1.025186 0.9166924
000050 bc 92 77 3f d9 8d 7c 3f 8b cd 68 3f 7c f7 6e 3f
       0.96708274 0.9865394 0.90938634 0.9334638
000060 d2 71 98 3f e7 cd 75 3f cd 2d 63 3f fb 6b 5d 3f
       1.1909735 0.9601731 0.8874176 0.8649289
000070 f9 d8 72 3f 0b 39 7a 3f 42 f6 81 3f 5b 16 81 3f
       0.94862324 0.9774329 1.0153277 1.0084947
000080 ae 34 7f 3f 5d 21 7f 3f a2 4f 7c 3f 48 d3 91 3f
       0.9968976 0.99660283 0.9855901 1.1392603
000090 60 64 7d 3f 71 43 81 3f 9c f1 87 3f b1 9b 96 3f
       0.98981285 1.0098706 1.0620608 1.1766263
0000a0 3c 25 77 3f 17 31 83 3f 7c 76 7c 3f 0e 93 74 3f
       0.9654119 1.0249356 0.9861829 0.9553689
0000b0 91 af 6e 3f 57 28 72 3f 85 9d 68 3f 55 dc 65 3f
       0.93236643 0.94592804 0.90865356 0.89789325
0000c0 e3 2f 64 3f 81 2d 79 3f cf 11 6c 3f 9d be 81 3f
       0.8913557 0.9733506 0.92214674 1.0136296
0000d0 55 bd 92 3f 80 e0 8b 3f 5c 3b 97 3f 5b 18 77 3f
       1.146403 1.0927887 1.181499 0.9652154
0000e0 3f d1 89 3f 5c 6e 61 3f 9d 12 9e 3f d7 2c 87 3f
       1.0766982 0.8805902 1.234943 1.0560559
0000f0 d9 fc 84 3f b3 5e 87 3f 8a 07 65 3f dd a6 76 3f
       1.0389663 1.0575775 0.8946463 0.96348363

encoder.net.1.layer.1.bias f4 [64]
000000 85 4e 50 be a3 9c 91 be 5a cc 92 bd ab c9 6e be
       -0.20342453 -0.28439817 -0.07167883 -0.23319118
000010 7d 0a 34 be 0a ad 83 bd 27 98 58 be 1e ba 1b be
       -0.17582126 -0.06429489 -0.21151792 -0.15207717
000020 c4 ba 16 bd 85 26 65 bd b6 53 35 be d2 ec 7a be
       -0.036799207 -0.05594494 -0.17707714 -0.24504402
000030 7d 24 7a be e3 6e 82 be 0f 13 00 be c9 df 56 be
       -0.24427982 -0.25475225 -0.1250727 -0.20983805
000040 4e d1 74 be 03 46 d1 bd 72 25 bd be 4b e0 53 be
       -0.23907968 -0.10218432 -0.3694263 -0.2069103
000050 1f c2 24 be 1d 39 74 be b0 dc 16 be aa a5 e4 bd
       -0.16089676 -0.23849912 -0.14732623 -0.111644104
000060 c6 df 00 be 08 50 5a be cd 3b 10 be 8b 32 2d be
       -0.12585363 -0.21319592 -0.14085312 -0.16913812
000070 63 27 af bd 3d 22 55 be 29 86 41 be 83 bf 2e bd
       -0.08552434 -0.20813842 -0.18898834 -0.04266311
000080 5f ea 4b be 7e ab 82 be 09 52 c8 be 29 06 4a be
       -0.19913624 -0.25521463 -0.39125088 -0.19728912
000090 11 de 60 be 45 dc 2a be 55 f4 ee bd f8 5c 90 be
       -0.21959712 -0.16685589 -0.116676964 -0.2819593
0000a0 63 ef 55 be 43 f0 32 be da bd 11 be 98 a5 23 be
       -0.208921 -0.17474465 -0.14232579 -0.15981138
0000b0 9b 35 11 be e5 21 8f be cd 49 79 be 56 d0 98 be
       -0.14180605 -0.27955547 -0.24344559 -0.29846448
0000c0 38 f2 a3 be 4d 9d 36 be 41 28 a0 be 56 7a 86 be
       -0.32020736 -0.17833443 -0.3128071 -0.2626521
0000d0 bc 3b 03 be b5 cb 3e be 0e f9 2f be 13 a0 90 be
       -0.12815756 -0.18632396 -0.1718485 -0.28247127
0000e0 89 f8 0b be 37 7a 0a be 09 b4 1c be 70 35 76 be
       -0.13669027 -0.13523184 -0.15303053 -0.24043822
0000f0 48 0c 19 be c2 bc 49 be bc 77 16 be 6d ca 9d bd
       -0.14946091 -0.19700912 -0.14694113 -0.07704625

encoder.net.1.layer.1.running_mean f4 [64]
000000 f8 f9 06 bf e5 c3 6a bf 33 9d 70 bf 72 c3 09 bf
       -0.5272517 -0.9170516 -0.93989867 -0.5381385
000010 4e f5 67 bf 45 ef b2 bd 2c 87 21 bf 55 9e 01 bf
       -0.9060868 -0.08737043 -0.6309688 -0.5063222
000020 c5 65 58 bf 78 a5 72 be 57 fa 2b bf 01 a3 69 be
       -0.8453029 -0.23695934 -0.67178863 -0.22816087
000030 a2 6e e0 bd 84 d6 65 3e f9 c6 cf be c4 f6 b8 bc
       -0.109586015 0.22445112 -0.40581492 -0.022578605
000040 d2 61 a7 be 7f ef eb be 40 51 f3 3e 4c 1a c2 ba
       -0.32691818 -0.4608116 0.47522926 -0.0014808862
000050 4f d1 85 be e9 6b 40 3e 21 3b dd bc d3 2d 20 3f
       -0.26136252 0.18791164 -0.027005734 0.6256992
000060 71 9f 9e bf 57 54 cd be 6c 5a 3c be 5c df ec bd
       -1.2392408 -0.4010341 -0.18393868 -0.1156604
000070 a2 61 2f bf b4 36 22 bd e8 f5 09 bf 5c 57 76 bc
       -0.6850835 -0.03960295 -0.5389085 -0.015035477
000080 0e d2 66 be 77 b5 70 be 3e 9f 4f 3f c5 9f 56 bf
       -0.22541067 -0.23506723 0.8110236 -0.8383754
000090 4f b6 56 bf 75 1e aa be 6a 7c 2d bf 54 ea d0 bd
       -0.8387193 -0.33226362 -0.67767966 -0.102009445
0000a0 c3 13 36 3f d3 a0 2f bf 03 ef 8b bf e2 c9 46 be
       0.71123904 -0.68604773 -1.0932316 -0.1941295
0000b0 40 f4 62 bf 95 4f 70 3e e9 ef f9 bd a7 d6 08 3f
       -0.88653946 0.23467858 -0.12203962 0.53452533
0000c0 7a 97 59 3f 34 66 ad be d6 fd 48 3e 6e db 74 bd
       0.8499676 -0.33867037 0.1962808 -0.059779577
0000d0 df d8 6a bf 9a 18 48 bf 65 8c 69 bf 0d 86 36 3f
       -0.9173717 -0.7816254 -0.9122985 0.71298295
0000e0 61 eb 15 bf b7 fc 0a bf 80 6c c6 bf 47 4b 23 bf
       -0.58562285 -0.5429186 -1.5501862 -0.6378674
0000f0 1e 32 14 bf 12 4a e3 be 91 3d 56 3f da 5e be bf
       -0.5788897 -0.4439245 0.8368769 -1.4872696

encoder.net.1.layer.1.running_var f4 [64]
000000 19 ce 38 3f 97 01 81 3f 66 c0 6e 3f ef a3 19 3f
       0.7218948 1.007861 0.93262327 0.6001577
000010 09 e1 8a 3f 2c 70 55 3f 70 74 94 3f c6 ae 81 3f
       1.0849925 0.83374286 1.1598034 1.0131462
000020 3b f8 65 3f f3 6f 30 3f 8c f4 f1 3e 1b 16 11 3f
       0.89831895 0.6892082 0.47256887 0.56674355
000030 55 ef 81 3f a4 87 09 3f 45 a8 67 3f 6c f3 42 3f
       1.0151163 0.53722596 0.90491134 0.7615268
000040 46 75 5f 3f 16 3d c5 3f 60 ac 4b 3f 95 03 db 3e
       0.8728832 1.5409267 0.795599 0.4277617
000050 b0 5d 22 3f f8 c3 33 3f 07 7f 18 3f 8f d8 5a 3f
       0.63424206 0.702209 0.5956883 0.8548669
000060 e8 72 ca 3f e0 90 2b 3f f6 5d 12 3f e1 f4 22 3f
       1.5816317 0.67017937 0.57174623 0.63654906
000070 a5 e3 6b 3f 7b f5 49 3f 2e ea 86 3f d3 d4 87 3f
       0.92144233 0.788902 1.0540216 1.0611824
000080 5f f4 4a 3f 26 1f 5c 3f b0 94 7a 3f eb 42 91 3f
       0.7927913 0.8598503 0.9788313 1.1348547
000090 0c d8 6c 3f 67 06 3b 3f 98 ad 60 3f 07 8a 91 3f
       0.9251716 0.73056644 0.87764883 1.1370248
0000a0 41 13 4d 3f c8 b8 4d 3f f2 a0 5e 3f 2f 0a 4b 3f
       0.80107504 0.8036008 0.86964333 0.79312414
0000b0 a3 68 2d 3f 8b 57 4d 3f 42 cb 24 3f b2 0f 07 3f
       0.6773779 0.80211705 0.64372647 0.52758324
0000c0 37 91 08 3f c4 21 28 3f 80 ca 1f 3f 6c fd 54 3f
       0.5334658 0.6567652 0.62418365 0.8319919
0000d0 94 cb 89 3f 61 64 ab 3f 6a 7f 8d 3f 67 9e fb 3e
       1.0765252 1.3390008 1.1054509 0.4914429
0000e0 fd 30 73 3f e9 fc ef 3e c7 6a da 3f 81 78 51 3f
       0.94996625 0.46872643 1.7063836 0.818245
0000f0 05 3b 4f 3f 27 2a 70 3f 3e 9c 2c 3f bf 7f 4c 3f
       0.8094943 0.9381432 0.67425907 0.79882425

encoder.net.2.layer.0.weight f4 [64, 64, 3, 3]
000000 c1 3d 29 3b dd 72 29 3d a1 48 82 3b 47 6b 22 bd
       0.0025824162 0.041369308 0.003975943 -0.03965309
000010 a6 74 a2 3d ff 64 d3 bc 2d 1d a1 3c a1 2c 31 3b
       0.07932405 -0.025804995 0.019667232 0.0027034658
000020 5a fb b8 bc a3 d9 b9 3d 04 23 23 3c 6a 6a a4 bd
       -0.022580791 0.09074714 0.009957079 -0.08028109
000030 81 a2 52 3a a2 e9 a7 bd 8c 23 11 3c 51 4a cb bb
       0.0008035079 -0.08198859 0.008858573 -0.0062039276
000040 b8 4c 8a 3d e4 1c 23 be 64 dd 16 bc 7a 08 14 3e
       0.06752914 -0.1592899 -0.009208057 0.14456359
000050 6f c5 52 3d d8 b8 0f 3c f0 4a b4 3d 9a 09 f9 bc
       0.05145782 0.0087720975 0.08803356 -0.030400086
000060 a6 c8 22 3d 82 38 cd bd 19 d6 a8 bb 1e 16 21 3d
       0.039742135 -0.10020544 -0.0051524756 0.039327733
000070 15 c6 29 bd 17 2d 9c 3b f0 de a9 3d a7 27 8f 3d
       -0.04144867 0.0047661173 0.08294475 0.06989985
000080 ff 06 5f bd 87 94 e4 bc d4 80 27 3d ed 77 5d bd
       -0.05445003 -0.027902855 0.040894344 -0.05406945
000090 f6 36 6b bc 3e ab 91 bd 66 0e 8b 3d 08 62 97 3c
       -0.014356365 -0.0711274 0.06789856 0.018479362
0000a0 8e 95 c3 3d 84 ba 4e bd b6 81 c8 3d aa da 9e bd
       0.0955001 -0.050470844 0.097903654 -0.077565506
0000b0 c9 e6 7a 3d f6 1a ff bc dc 0f 5a bd e8 e1 01 3b
       0.06125525 -0.031140786 -0.05323778 0.0019818489
0000c0 06 14 99 3c 20 ad ab 3d 8e 97 2d 3d f0 40 10 bd
       0.018686306 0.0838263 0.042380862 -0.03521818
0000d0 04 5e 36 bd b2 89 3d 3d 8f f5 d7 3c bb 9d 24 bb
       -0.044523254 0.046273895 0.026362209 -0.0025118429
0000e0 41 fd bb 3c a6 26 43 bd 4f f3 f2 bc 24 18 f4 bc
       0.02294791 -0.04764428 -0.029657034 -0.029796667
0000f0 24 a7 eb bc c4 c7 8f bd 4e e4 af bc 1c 04 fd bd
       -0.028766222 -0.07020524 -0.021471169 -0.123542994
000100 21 b2 d1 bc f7 96 09 3c 87 73 69 bc 52 06 33 bd
       -0.025597634 0.008397809 -0.014248735 -0.0437072
000110 d1 04 72 bc 54 f8 39 bd 99 a5 79 bd 92 66 9e bc
       -0.014771656 -0.04540284 -0.06094894 -0.019336019
000120 a4 71 08 3d 2f e8 04 be e8 b5 40 3d 66 c6 e3 3c
       0.0333115 -0.12979196 0.04704848 0.027804565
000130 53 ff 0b 3c 34 71 d0 3d f2 0c 30 bd a1 a9 4e bd
       0.008544761 0.10177842 -0.042981096 -0.05045474
000140 98 6c 49 be 2c 48 ad 3b af 55 8a 3c 2d 4d 93 bd
       -0.19670331 0.0052881446 0.01688656 -0.071924545
000150 a0 60 5f 3d 6f 96 24 bd 8c f3 08 bd 19 f4 90 bc
       0.05453551 -0.040182527 -0.03343539 -0.01769452
000160 8e 81 92 bc 95 67 3b bd 37 32 2d bb bf 67 51 3d
       -0.017884042 -0.04575308 -0.0026427635 0.05112433
000170 6e 52 8c bb 9f c1 c5 3d 84 6e a2 3c 66 36 52 3d
       -0.0042822873 0.09656071 0.019828089 0.05132141
000180 77 23 9b bd 76 a6 84 bd 2d 92 5f bd b9 ae 80 3d
       -0.07575124 -0.064770624 -0.054582763 0.06283326
000190 16 9e 3b 3d 06 28 0b bd c6 57 b7 bc ff 1f ce 3b
       0.04580506 -0.033973716 -0.02238072 0.0062904353
0001a0 dc 4b f5 3c 24 3a a5 3d b1 cd 3f bd 2e 33 a1 bb
       0.0299434 0.0806773 -0.046827022 -0.004919431
0001b0 06 1d 5e 3d a5 e3 c7 3d 2e 44 db 3d 64 9a f4 3d
       0.054226898 0.097602166 0.107063636 0.1194351
0001c0 92 8c 92 3d e0 5b 0e bd d5 76 9d bd 44 aa 8c 36
       0.07155718 -0.034755588 -0.07688681 4.1921467e-06
0001d0 7d cd 31 bd 63 51 6e bd 82 e6 52 bd 6f 2a 06 bc
       -0.04340886 -0.058183085 -0.05148936 -0.008188828
0001e0 1c ff c3 bd 5c 83 3e 3d c5 b5 4c bd 3f 67 45 3c
       -0.095701426 0.046511993 -0.049978036 0.012048542
0001f0 93 8e 9e bc ac 44 33 3d 7f e8 b9 3c 35 49 b2 3c
       -0.019355094 0.043766662 0.02269387 0.021763423
000200 3f 0e 97 bd c6 c9 89 3a d0 8d f9 bc cc a4 39 bd
       -0.07375764 0.0010512404 -0.03046313 -0.04532318
000210 6d bd f8 3c d6 b8 88 3d 40 08 ee bd a4 90 e2 bc
       0.030363763 0.0667588 -0.11622667 -0.02765686
000220 6e 30 a1 bb 88 6b 6c bd 01 74 58 3d a8 4f 68 bd
       -0.0049191033 -0.057719737 0.052845005 -0.05671659
000230 8b 5d 0e bc 5b 0e 8b bd 8c 2a e0 bc c0 ec 13 bd
       -0.008689295 -0.067898475 -0.027364038 -0.036114454
000240 08 47 3b 3c 41 2f 9b bd 3f 18 84 bc f2 c4 b4 3d
       0.011430509 -0.07577372 -0.016124843 0.08826627
000250 76 82 45 3d 2c 4d 93 bd 1f 84 98 3d 04 5f d8 bb
       0.04822012 -0.07192454 0.07447075 -0.0066031236
000260 a1 98 79 bb 68 be 94 3d ee 56 0c be 08 38 6a bd
       -0.0038085359 0.072628796 -0.13705036 -0.05718234
000270 78 62 06 3e e1 02 1f 3d 64 71 0a bc 7d 3f 92 bd
       0.131235 0.038821105 -0.008449886 -0.07141016
000280 b9 f3 b6 3b 79 2e 38 bd 9b 2c 2d bd 75 16 8f bc
       0.005583253 -0.044966195 -0.042278867 -0.017466763
000290 9d fc 6f 3d e2 dc df bc e2 0a 8e 3d 18 b4 5e 3d
       0.05859052 -0.027327005 0.069356695 0.05437097
0002a0 1d c5 bb bd 97 31 45 3c 9b d1 6a 3d e2 20 2e 3d
       -0.09168456 0.012035749 0.0573288 0.04251183
0002b0 b2 cd fc bd 0b 22 cd 3c 71 1d 0f 3c 49 a2 79 bd
       -0.12343921 0.025040647 0.008735047 -0.060945783
0002c0 fd 2c 39 bd 94 2d 31 3d df b7 6e bc c3 12 38 3c
       -0.04520892 0.043256357 -0.0145702055 0.011234942
0002d0 e4 e8 16 bd 43 02 7c bc a2 c1 ee 3c db 0b 1c 3d
       -0.036843196 -0.015381399 0.029145066 0.038097244
0002e0 0c 06 df 3c 8f 34 e2 bb 9a 3e d5 bd 7d 36 15 3d
       0.027224563 -0.006903238 -0.10412331 0.036428917
0002f0 b4 2a 1f bd 87 86 3a bc 53 a3 9b bd 37 0e 81 bd
       -0.038859084 -0.011384613 -0.07599511 -0.063015394
000300 ac 4e 54 bd 0f 2e 2b 3d 20 f0 9a bc 96 89 89 bd
       -0.05183284 0.04179197 -0.018913329 -0.067156956
000310 af 33 a8 bd fd 0c 25 3d bb c1 c5 3b 5c 62 14 3d
       -0.08212983 0.04029559 0.0060350574 0.036226615
000320 e0 47 27 bc 1a ce 24 3d fb 0b 7b 3d f6 a5 a3 3d
       -0.010210007 0.040235616 0.061290722 0.07990639
000330 65 43 51 bd 7f 90 19 3b 89 98 8e bb 0a 05 9f 3d
       -0.051089663 0.0023432074 -0.0043516797 0.07764633
000340 36 dd 6c 3d b2 e3 e5 ba 17 f4 9b 3d 60 0f 9c bd
       0.05782815 -0.0017539172 0.07614916 -0.0762012
000350 74 d9 a8 bc 9d 94 34 3d 91 f5 95 bc 18 d1 a3 3d
       -0.020611502 0.04408704 -0.018305572 0.07998866
000360 e2 b5 1a be 12 60 1c 3e 2b 1a cc bb 92 7c 61 bc
       -0.15108445 0.15271023 -0.0062287054 -0.01376261
000370 bd 5b 5e 3d 42 0b 86 3d 74 8f 80 3c 30 5d a8 3d
       0.054286707 0.06545116 0.015693404 0.08220899
000380 b7 fd a3 3c 84 6c 3d 3d d2 2e 93 3d ad c8 35 bd
       0.020018442 0.046246067 0.07186665 -0.044380832
000390 a6 8c f9 3c 99 96 19 bd ad a4 0c bc 52 4b 97 3d
       0.030462574 -0.037497137 -0.008584184 0.07387413
0003a0 dd 37 91 3c f8 50 af bc 3b 5d 3e 3c e3 8a c3 3d
       0.017726833 -0.021400914 0.011618908 0.09547975
0003b0 0f de c5 bc b1 2c 50 3d 52 1b 9f bd 45 4b e8 3c
       -0.024153737 0.05082387 -0.07768883 0.028356204
0003c0 58 2f 05 3d c5 7e 80 3d 38 ff a2 bc 29 a2 e7 3c
       0.032515854 0.06274179 -0.019897088 0.028275566
0003d0 a3 e4 50 3d bb 81 8f 3b 26 a8 9d 3d 6b 54 43 3d
       0.050999295 0.0043794787 0.076980874 0.04768793
0003e0 78 18 52 3d d3 e5 c2 3d e2 5e ab 3d a2 88 5d bb
       0.051292866 0.09516492 0.08367707 -0.0033803363
0003f0 2c 25 1d bd 16 8c d5 3c fe 93 6d 3d 13 79 28 bd
       -0.038365528 0.026067775 0.058002464 -0.04113109

encoder.net.2.layer.0.bias f4 [64]
000000 26 cc 55 3f a9 8d 72 3f 43 0b 74 3f f7 83 7b 3f
       0.8351463 0.94747406 0.95329684 0.9824824
000010 8c f4 79 3f ea 46 65 3f e0 b4 71 3f 9b ab 7a 3f
       0.97638774 0.8956133 0.9441662 0.979181
000020 db 0c 75 3f 0f 14 6b 3f 06 2f 7f 3f 14 e2 6c 3f
       0.9572274 0.9182748 0.9968113 0.9253247
000030 a5 54 7b 3f 2e 4a 6a 3f 24 ee 6f 3f dc 21 74 3f
       0.9817603 0.9151944 0.9372275 0.95364165
000040 00 89 65 3f 1d 0b 63 3f 22 83 62 3f 68 27 59 3f
       0.8966217 0.8868883 0.8848134 0.84825754
000050 06 e5 77 3f a9 69 68 3f b7 9b 6b 3f 65 44 78 3f
       0.9683384 0.90786225 0.92034477 0.9697936
000060 c1 a5 75 3f ea 58 5d 3f b9 19 82 3f aa 93 6a 3f
       0.95956045 0.864638 1.01641 0.9163157
000070 4b fc 80 3f 9e 1e 7c 3f 84 ca 71 3f ba 00 5a 3f
       1.0076994 0.9848422 0.9444964 0.8515736
000080 f9 00 72 3f 53 27 85 3f 8d 32 70 3f 5c b8 69 3f
       0.94532734 1.0402626 0.93827134 0.91296935
000090 7b 7c 75 3f 94 d8 80 3f 5f 7b 58 3f fa 8f 65 3f
       0.9589307 1.0066094 0.8456325 0.89672816
0000a0 0b 47 6a 3f fe 9d 80 3f 8c 2d 55 3f 79 2e 5d 3f
       0.9151465 1.0048215 0.83272624 0.86399037
0000b0 a3 55 7e 3f 06 ab 72 3f db 38 6c 3f f2 08 80 3f
       0.9934942 0.9479221 0.92274255 1.000273
0000c0 5e 25 6c 3f e9 c2 5c 3f 95 25 65 3f f8 b8 7a 3f
       0.9224452 0.8623491 0.8951047 0.9793849
0000d0 37 7b 85 3f 91 54 83 3f 73 68 7c 3f 1a b9 6e 3f
       1.0428227 1.0260183 0.98596877 0.9325119
0000e0 04 9b 6f 3f 49 7f 6f 3f 79 05 72 3f 31 21 6f 3f
       0.9359591 0.93553597 0.945396 0.9341002
0000f0 1f ff 80 3f 57 af 73 3f 17 d4 70 3f d1 fa 6a 3f
       1.0077857 0.9518942 0.94073623 0.91788965

encoder.net.2.layer.1.weight f4 [64]
000000 6d 65 71 3f 8c bc 5d 3f 2c 88 83 3f 5f 8b 89 3f
       0.9429539 0.86615825 1.0275931 1.0745658
000010 b4 69 83 3f 59 25 86 3f dc 70 5c 3f 39 e0 80 3f
       1.0266633 1.0480148 0.8610971 1.0068427
000020 0e f4 80 3f 4f cc 91 3f 97 26 63 3f 9b 87 77 3f
       1.007448 1.1390475 0.8873076 0.9669129
000030 b8 59 8e 3f 0f 02 76 3f 46 51 78 3f f3 1e 7c 3f
       1.112113 0.9609689 0.96999013 0.98484725
000040 5e 0e 65 3f 86 cd 84 3f 66 fa 8c 3f 45 7c 8b 3f
       0.8947505 1.0375221 1.1013916 1.0897299
000050 1e f5 67 3f c9 67 80 3f 8d 9c 6b 3f ab e0 67 3f
       0.90608394 1.0031673 0.9203575 0.9057719
000060 57 e2 68 3f 86 e0 65 3f e4 75 8b 3f 79 c7 8c 3f
       0.9097037 0.8979572 1.0895352 1.0998374
000070 ca e3 7e 3f ca 45 6e 3f f1 45 68 3f 8f c0 79 3f
       0.9956633 0.9307524 0.9073172 0.97559446
000080 52 a6 7c 3f ef c8 59 3f 64 83 71 3f 0d c8 6f 3f
       0.98691285 0.85072225 0.9434111 0.9366463
000090 3a d9 87 3f 4b 5f 81 3f e5 3b 70 3f 9a 56 5f 3f
       1.0613167 1.0107206 0.9384139 0.8724152
0000a0 ba e9 80 3f 56 59 5c 3f 7f a0 88 3f 05 b6 66 3f
       1.0071328 0.86073816 1.067398 0.9012149
0000b0 10 0d 62 3f 5a 8e 62 3f 5e 46 87 3f bc 77 80 3f
       0.8830118 0.8849846 1.0568349 1.003654
0000c0 37 fb 88 3f 4f 71 6e 3f fd 04 87 3f 33 a2 6b 3f
       1.0701665 0.93141645 1.0548397 0.9204437
0000d0 87 2c 83 3f b2 88 80 3f cd 2c 7f 3f af d3 80 3f
       1.0247964 1.0041716 0.99677736 1.0064601
0000e0 46 ff 82 3f 1f 8e 59 3f 14 a8 9a 3f e8 8a 68 3f
       1.0234153 0.84982485 1.2082543 0.90836954
0000f0 79 c1 74 3f 49 4e 8b 3f ab 18 a4 3f f2 81 6a 3f
       0.95607716 1.0883266 1.2820028 0.9160453

encoder.net.2.layer.1.bias f4 [64]
000000 80 db 55 be 6b 4e 97 be 8c 30 4a be fe 37 d0 be
       -0.20884514 -0.29552016 -0.19745082 -0.4066772
000010 22 5d 9c be 4a ad 8d be 8f 8f c6 be 23 d5 92 be
       -0.30539805 -0.27671272 -0.38781402 -0.28678235
000020 55 e9 38 be 37 0e 9a be 6f b7 51 be 12 ef 3c be
       -0.18057759 -0.3008897 -0.2048013 -0.18450573
000030 9f df a4 be 78 36 8c be df 71 3c be 04 99 87 be
       -0.3220186 -0.27385306 -0.18402813 -0.2648393
000040 5f 1e a3 be ff 52 87 be d1 e6 4b be ba 9c 35 be
       -0.3185911 -0.26430508 -0.19912268 -0.17735568
000050 49 1e 81 be c9 9f 70 be 45 9b 45 be 09 4b 64 be
       -0.25218418 -0.23498453 -0.19297512 -0.22294249
000060 fc c0 b7 be df 7d 37 be 50 b6 be be a2 62 66 be
       -0.35889423 -0.1791911 -0.37248468 -0.22498563
000070 3f 1e a3 be 4c 59 da be 4c fe 73 be 6e b0 34 be
       -0.31859013 -0.42646253 -0.23827475 -0.17645428
000080 ba 10 7b be 40 d0 73 be 8c ae 0e be 2e 63 43 be
       -0.245181 -0.2380991 -0.13933772 -0.19080803
000090 de 68 73 be fa 7d 7f be b8 9b 89 be e8 35 83 be
       -0.23770472 -0.249504 -0.26876616 -0.25627065
0000a0 91 7e dc be d9 09 b3 be 2a 12 80 be e7 04 6a be
       -0.43065313 -0.3496845 -0.25013858 -0.22853433
0000b0 ff 5d 9e be 82 8e 62 be 82 0e c0 be 2b db 0d be
       -0.30931088 -0.22124675 -0.3751107 -0.13853137
0000c0 92 ec 86 be 65 7f 0d be 24 2a d6 be 5b be a7 be
       -0.26352364 -0.13818128 -0.41829026 -0.32762417
0000d0 74 2f 56 be 6b 9a 38 be c4 ac 51 be fd 8d 4d be
       -0.2091654 -0.18027656 -0.20476061 -0.20073695
0000e0 40 20 85 be 19 6c 55 be da 19 b2 be 75 ac 5e be
       -0.26001167 -0.20842017 -0.34785348 -0.21745475
0000f0 7c 25 93 be 1f 52 8a be fe 50 a5 be 47 aa 75 be
       -0.28739536 -0.27015778 -0.32288355 -0.23990737

encoder.net.2.layer.1.running_mean f4 [64]
000000 27 8e 87 3f f3 05 e1 3f 91 5e 99 3e fe 79 82 3c
       1.0590256 1.757994 0.2995496 0.015927311
000010 ac 57 5c be e7 98 0a 3d 69 71 8a 3f 40 ca 4b 3f
       -0.21517819 0.033837225 1.081586 0.79605484
000020 16 fb 98 3f 04 2c 7f bd e7 e0 02 3f 9b ce 0c 3f
       1.1951625 -0.062297836 0.51124424 0.55002755
000030 f9 16 53 3e 78 72 d1 3f 49 5f 7d 3f 33 8f 4b 3f
       0.20614232 1.6363058 0.9897352 0.7951538
000040 62 81 db 3f e5 04 80 be ae 69 30 3f 63 17 e4 3e
       1.714886 -0.25003734 0.68911254 0.44549093
000050 0f df 4a 3f 4b 61 93 3e 00 69 f5 3f f4 4c b5 3e
       0.7924661 0.28785166 1.9172668 0.35410273
000060 8c 9c 1e 3f 42 cc e8 3f 99 b9 42 3e 6f af b7 3e
       0.6195762 1.8187335 0.19016112 0.35876033
000070 ea b4 92 3f 35 40 69 3f a5 1d 3f 3f 26 1f 50 bd
       1.146146 0.911136 0.7465461 -0.050810955
000080 4e 60 20 3f 79 cd c9 3e 87 ed b8 3e 63 d4 a4 3e
       0.6264695 0.39414576 0.3611872 0.32193288
000090 71 b0 8a 3f 10 23 29 3f 9d 1d 54 3f 37 82 82 3f
       1.0835096 0.66069126 0.82857686 1.0195988
0000a0 80 f8 3b 3f 51 2f 84 3f f0 67 58 be d3 3c d6 3e
       0.73426056 1.032694 -0.21133399 0.4184328
0000b0 f9 84 60 3f 59 95 cc 3e 1a 41 cd 3e 49 19 8c 3e
       0.877029 0.39957693 0.4008873 0.2736304
0000c0 2c a2 e1 bd cd 05 7e 3f 1d 41 1f bf ca 19 2f 3f
       -0.1101726 0.992276 -0.6220873 0.68398726
0000d0 7e 3f 3a 3f 4a 30 2c bf 80 21 cd 3d 64 60 49 bd
       0.7275313 -0.67261183 0.10016155 -0.04916419
0000e0 b3 d2 5d 3f c1 b8 9f 3f 47 67 0e 3f 21 8b 76 3f
       0.86649626 1.2478257 0.5562634 0.96306044
0000f0 08 92 a8 3d f6 60 2a 3f 42 2c 85 be 9a c3 10 3f
       0.08230978 0.665542 -0.2601033 0.56548464

encoder.net.2.layer.1.running_var f4 [64]
000000 1a 4a 3a 3f d2 f7 42 3f 9a a7 89 3f ca 23 82 3f
       0.7276932 0.76159394 1.0754273 1.0167172
000010 63 1c 82 3f 3a 38 79 3f 21 6f 13 3f 85 3b 66 3f
       1.0164913 0.9735142 0.57591444 0.8993457
000020 63 23 91 3f 06 ed 89 3f d1 f2 43 3f 96 f1 59 3f
       1.1338924 1.0775459 0.76542383 0.85134256
000030 5e f3 8e 3f f7 84 5c 3f f4 53 61 3f fc 3d 50 3f
       1.116802 0.8614039 0.8801873 0.8134458
000040 f0 a7 97 3f a3 14 52 3f 7a b8 93 3f 06 6e 8c 3f
       1.1848125 0.8206274 1.1540673 1.0971076
000050 82 04 2a 3f 75 f1 84 3f a9 e5 7c 3f a4 7f 1f 3f
       0.6641313 1.0386187 0.98787934 0.6230414
000060 1e 63 20 3f af e8 69 3f 7d 62 74 3f bf 3c 93 3f
       0.6265124 0.9137067 0.9546278 1.1502913
000070 70 22 4b 3f 47 54 55 3f 42 be 6b 3f b9 53 2a 3f
       0.7934942 0.8333172 0.92087185 0.66534
000080 fc e5 57 3f 13 9f 39 3f 6c b8 40 3f b3 ce 37 3f
       0.84335303 0.72508353 0.75281405 0.7179977
000090 23 98 7d 3f 51 62 61 3f ca aa 47 3f 79 65 3f 3f
       0.9906027 0.88040644 0.7799498 0.7476421
0000a0 68 26 7a 3f 23 75 36 3f 19 06 89 3f 38 fc 28 3f
       0.97714853 0.71272486 1.0704986 0.66009855
0000b0 dc 2d 23 3f 27 42 41 3f c2 24 86 3f d3 b8 86 3f
       0.6374185 0.75491565 1.0479968 1.0525154
0000c0 83 95 90 3f a9 8a 74 3f 01 65 65 3f 27 8a 1e 3f
       1.1295627 0.9552408 0.89607245 0.61929554
0000d0 af 65 46 3f f7 8e 7e 3f e7 e0 60 3f 4a 66 66 3f
       0.77498907 0.994369 0.87843174 0.8999983
0000e0 7b b4 6a 3f 36 08 41 3f eb 08 aa 3f eb 80 22 3f
       0.9168164 0.75403154 1.3283972 0.63477963
0000f0 35 86 35 3f 1b a3 88 3f 52 5f c7 3f 30 e4 48 3f
       0.7090791 1.0674776 1.5575964 0.78473186
